assets/mnist_model.pth (torch, 440240 bytes, 6 tensors)

fc1.weight f4 [128, 784]
0.019406816 0.023022786 -0.034630105 0.029204912 0.033338606 -0.017909793 0.022923272 0.015013272
0.014404839 0.0073464043 -0.020008622 0.010542672 -0.019412516 0.025479523 0.0142880315 0.014896377
-0.022805009 0.033919733 -0.028172934 -0.028763304 0.0104501285 -0.012987567 0.0042561106 0.030493334
-0.03316062 0.026354969 0.009123516 0.027119879 -0.021007735 -0.021058 -0.026192626 -0.005014066
0.026326057 0.008414923 -0.034823757 -0.02061548 0.028310608 -0.0077963793 0.022179637 -0.033936594
0.02503683 -0.015262843 -0.0063756686 0.013744097 0.0030412711 -0.0091809295 0.016003441 0.022531146
0.00044959306 -0.02531913 0.0141599085 0.023756463 -0.006778526 0.0154552385 -0.02726836 0.006655035
-0.01617561 0.01103635 -0.022682376 -0.010568463 0.0286209 -0.015462798 -0.01399741 0.028029105
0.020056387 -0.023821922 0.035370655 -0.0040042317 0.0113692 0.02280719 0.03316638 0.02311566
0.012147457 -0.027982745 -0.027314086 -0.031184688 0.0010349376 0.022093382 -0.000588872 0.011114479
0.020788923 -0.013790475 -0.017485037 -0.016629413 0.024768077 0.014839118 -0.0027528843 0.02369718
-0.011726679 -0.01066364 0.010851005 0.014235771 0.0359978 0.020591669 0.037581217 -0.022778578
0.02370037 -0.019235916 -0.010561465 -0.041799374 -0.016617663 0.011896354 -0.039548002 0.026199209
-0.014765707 0.0126300985 0.015977683 0.011692234 -0.012789943 -0.007515859 -0.02132924 -0.022117894
0.029615648 -0.01667421 -0.0050902213 -0.020828048 -0.011278425 0.012405657 -0.02479599 0.019178804
-0.007896508 -0.0062783416 0.03436017 0.011776211 0.006358784 0.014948244 -0.021482697 -0.046261147
-0.034913644 -0.01748589 0.02069063 -0.0032763944 -0.0068204463 -0.0051158834 -0.036252044 -0.006819276
0.034124136 0.022504978 -0.0045226756 0.013167503 0.0315273 -0.011183193 0.03503735 -0.032597695
0.008267013 -0.0065244585 0.0364675 0.011378605 0.04128199 0.0058045257 0.009436729 -0.0045365063
0.0058081727 0.027689109 0.0042174435 -0.056068547 -0.028464055 -0.04740275 0.023662362 0.009797611
-0.044306543 -0.042601824 -0.054924797 0.020019662 -0.0011607659 0.023158984 0.0348156 0.025508424
0.028794125 0.019382581 0.020038072 0.0044735465 -0.00020514689 0.057570074 0.055222187 0.062376842
0.02078392 0.031485856 -0.033225738 0.030001555 0.0071611553 0.05044929 0.0031508305 -0.041227035
-0.023580061 0.0011039882 0.014597903 -0.009088257 -0.037547212 -0.0071724975 -0.016026376 -0.031369295
-0.022360904 -0.002301127 -0.0016658095 0.03206801 -0.026440227 -0.0018636343 0.031533968 0.024688795
0.018152256 0.008556722 0.029054068 0.048821423 -0.00866722 0.03885645 0.002048448 0.045724966
-0.0069355606 0.027224887 -0.029240996 -0.04600189 -0.014131134 -0.0014365364 0.0141943 -0.020179018
-0.040072076 -0.03266255 -0.02262789 -0.015744533 0.0002508945 0.013361182 0.022558404 -0.012897132
-0.027221574 -0.01337727 -0.010905463 0.03404264 0.0060642613 -0.0052103275 0.02822084 0.010704655
-0.026744487 0.0030945388 -0.01977171 -0.06060559 -0.015210668 -0.03686598 -0.0611662 -0.05428144
-0.008542105 -0.030923657 -0.051941123 -0.007197483 -0.05469219 -0.058996137 -0.06327889 -0.027534569
-0.04102119 0.011220717 0.02227552 0.028026735 0.016950667 0.0069341105 0.03834644 -0.014834891
00000000: 0bfb 9e3c 489a bc3c 4cd8 0dbd 243f ef3c
00000010: 108e 083d 8fb7 92bc 96c9 bb3c 3afa 753c
00000020: 4602 6c3c 1bba f03b 1fe9 a3bc 2cbb 2c3c
00000030: ff06 9fbc 6fba d03c 5918 6a3c ef0f 743c
00000040: 92d1 babc 6bef 0a3d edca e6bc 05a1 ebbc
00000050: 0437 2b3c cec9 54bc d876 8b3b 28cd f93c
00000060: 6ed3 07bd 60e6 d73c cd7a 153c 822a de3c
00000070: 6a18 acbc d481 acbc eb91 d6bc 094d a4bb
00000080: bea9 d73c bfde 093c 5ba3 0ebd cce1 a8bc
00000090: a6eb e73c c578 ffbb 12b2 b53c 1901 0bbd
000000a0: 0a1a cd3c 0111 7abc fcea d0bb ec2e 613c
000000b0: 1050 473b 9c6b 16bc a619 833c 3d93 b83c
000000c0: 5cb7 eb39 106a cfbc f6fe 673c ea9c c23c
000000d0: 661e debb f837 7d3c e561 dfbc 7b12 da3b
000000e0: b682 84bc cfd1 343c 64d0 b9bc 5927 2dbc
000000f0: 6176 ea3c ad57 7dbc 6555 65bc 4b9d e53c
00000100: 4b4d a43c 3126 c3bc d2e0 103d ee35 83bb
00000110: e245 3a3c 25d6 ba3c 78d9 073d 0d5d bd3c
00000120: 2106 473c 123c e5bc cac1 dfbc 0877 ffbc
00000130: bea6 873a 2efd b43c 885e 1aba 8119 363c
00000140: 884d aa3c 72f1 61bc c83c 8fbc 683a 88bc
00000150: 6ce6 ca3c c61f 733c bc69 34bb 9720 c23c
00000160: 4221 40bc 8cb6 2ebc 6ac8 313c 273d 693c
00000170: 6e72 133d dcaf a83c c3ee 193d 249a babc
00000180: 4727 c23c a494 9dbc ff09 2dbc d235 2bbd
00000190: c421 88bc ede8 423c 16fd 21bd b99f d63c
000001a0: ddeb 71bc 79ee 4e3c a1e3 823c c990 3f3c
000001b0: e98c 51bc 9847 f6bb a9ba aebc 9630 b5bc
000001c0: 849c f23c 5a98 88bc dfcb a6bb 959f aabc
000001d0: 25c9 38bc 1941 4b3c f620 cbbc de1c 9d3c
000001e0: 5b60 01bc 8cba cdbb 40bd 0c3d 02f1 403c
000001f0: 595d d03b 7be9 743c 7bfc afbc 547c 3dbd
00000200: 9c01 0fbd 923e 8fbc 657f a93c c7b8 56bb
00000210: 0d7e dfbb 24a3 a7bb 067d 14bd 3c74 dfbb
00000220: c0c5 0b3d 5c5c b83c f432 94bb 83bc 573c
00000230: c522 013d b639 37bc 5383 0f3d 2985 05bd
00000240: 5e72 073c 20cb d5bb f25e 153d 546d 3a3c
00000250: 4e17 293d e433 be3b 839c 1a3c f9a6 94bb
00000260: 7c52 be3b 45d4 e23c 7b32 8a3b 22a8 65bd
00000270: 732d e9bc 6329 42bd 92d7 c13c 2986 203c
00000280: c77a 35bd 407f 2ebd d3f8 60bd 4600 a43c
00000290: d724 98ba e9b7 bd3c cd9a 0e3d 0bf7 d03c
000002a0: a8e1 eb3c 38c8 9e3c e226 a43c d496 923b
000002b0: b31c 57b9 99ce 6b3d a930 623d dc7e 7f3d
000002c0: 0a43 aa3c 50f7 003d b617 08bd d2c5 f53c
000002d0: 20a8 ea3b eaa3 4e3d 2a7e 4e3b aedd 28bd
000002e0: f92a c1bc b2b3 903a 0b2c 6f3c eae6 14bc
000002f0: 1bcb 19bd 4507 ebbb bf49 83bc 177d 00bd
00000300: 372e b7bc 81ce 16bb 4b57 daba bf59 033d
00000310: 2d99 d8bc 3145 f4ba c329 013d 2840 ca3c
00000320: 0ab4 943c 7e31 0c3c cc02 ee3c f9f8 473d
00000330: f500 0ebc f127 1f3d 413f 063b 1a4a 3b3d
00000340: b343 e3bb ba06 df3c d08a efbc 7a6c 3cbd
00000350: 4686 67bc 2a4a bcba 368f 683c 784e a5bc
00000360: 9e22 24bd 2bc9 05bd 205e b9bc aefa 80bc
00000370: 7d8a 8339 dce8 5a3c 67cc b83c 7e4e 53bc
00000380: c7ff debc 562c 5bbc d4ac 32bc 4c70 0b3d
00000390: b6b6 c63b 65bb aabb 642f e73c 9462 2f3c
000003a0: 4117 dbbc bfcd 4a3b 48f8 a1bc 913d 78bd
000003b0: 2a36 79bc c800 17bd 6989 7abd 3756 5ebd
000003c0: 2ff4 0bbc 9c53 fdbc 37c0 54bd ddd8 ebbb
000003d0: eb04 60bd efa5 71bd 5d98 81bd 2d90 e1bc
000003e0: d605 28bd 19d7 373c 277b b63c 5398 e53c
000003f0: 20dc 8a3c 8937 e33b 2811 1d3d 0b0e 73bc

fc1.bias f4 [128]
-0.029235644 0.030040478 0.004864819 -0.02592276 0.023197202 0.014456708 0.0033296447 -0.01427162
0.012982675 -0.030778922 0.02654958 0.01039471 0.018604118 0.0111057805 0.007604781 -0.016259732
-0.0225756 -0.0024302872 0.0026379188 -0.03114104 -0.019247806 0.02933426 -0.04205932 0.005716112
0.041557726 -0.010041256 0.04221801 0.0086814985 -0.02518418 0.02071193 -0.0075716325 -0.0016070646
-0.031882837 -0.0029587669 -0.0056655183 -0.0030713796 -0.04111724 -0.004591273 -0.0111937 -0.01744631
-0.014330183 0.0045051067 0.0064664083 0.03572407 0.011313304 -0.011882086 -0.013388616 0.00076120975
-0.015995981 0.03410445 0.011687892 0.0012411604 0.0029315467 0.0014978696 0.015715262 -0.014707408
0.025659394 0.024031263 0.004544316 -0.0072670137 0.015102788 -0.0068114996 0.0013899452 -0.016776375
-0.006136581 -0.035221953 -0.039392635 -0.0077085462 0.016151939 0.0019749645 -0.030931145 -0.01042703
-0.0031032949 0.04011304 -0.010375248 -0.01850195 -0.0036093078 0.028454892 0.005590235 -0.025627248
-0.01292516 0.014840034 0.02140928 0.0039228983 0.01882201 -0.035105824 0.014292205 -0.02000792
0.0037981726 -0.02945136 -0.009445162 0.02264824 0.022584492 -0.022925748 -0.02613426 -0.012862203
-0.008400304 0.010382738 -0.024426917 -0.02951851 -0.039492745 0.031475198 -0.0054599997 -0.01182317
0.0067392425 -0.031654336 0.020907246 -0.02319404 -0.044657346 0.003635349 -0.005038607 -0.018116038
-0.0055368687 -0.006193198 -0.0028805854 -0.00045668485 0.01883453 -0.022257369 -0.0126266405 0.022193883
0.02114756 -0.012056005 0.0067010988 0.011200141 -0.0109300045 0.009803731 0.0003895262 -0.0056965197
00000000: 977f efbc 7317 f63c 0f69 9f3b f85b d4bc
00000010: 0f08 be3c d4db 6c3c 2b36 5a3b 83d3 69bc
00000020: 49b5 543c 1424 fcbc 817e d93c 934e 2a3c
00000030: aa67 983c 05f5 353c 8731 f93b 2133 85bc
00000040: 77f0 b8bc 7445 1fbb efe0 2c3b 7f1b ffbc
00000050: 93ad 9dbc 674e f03c 6546 2cbd 394e bb3b
00000060: 6f38 2a3d 1584 24bc cbec 2c3d d83c 0e3c
00000070: 0e4f cebc 11ac a93c 751b f8bb 24a4 d2ba
00000080: 9497 02bd dfe7 41bb d0a5 b9bb 3349 49bb
00000090: 8d6a 28bd 6472 96bb c865 37bc 90eb 8ebc
000000a0: 25c9 6abc 939f 933b 2ae4 d33b 6753 123d
000000b0: 705b 393c 15ad 42bc ed5b 5bbc ec8b 473a
000000c0: 010a 83bc 1cb1 0b3d 927e 3f3c 6fae a23a
000000d0: 311f 403b 2a54 c43a 4bbd 803c 57f7 70bc
000000e0: a633 d23c 36dd c43c 7ce8 943b 2120 eebb
000000f0: af71 773c 0033 dfbb d22e b63a 9c6e 89bc
00000100: 5f15 c9bb e544 10bd 2c5a 21bd f997 fcbb
00000110: 1251 843c 686e 013b 5063 fdbc 22d6 2abc
00000120: a660 4bbb 924d 243d f2fc 29bc 6791 97bc
00000130: 238a 6cbb 3c1a e93c 4a2e b73b 3cf0 d1bc
00000140: 0dc4 53bc 9d23 733c 8462 af3c a88b 803b
00000150: 9e30 9a3c 20cb 0fbd da29 6a3c a6e7 a3bc
00000160: c3ea 783b fb43 f1bc e1bf 1abc cd88 b93c
00000170: 1d03 b93c c7ce bbbc 8417 d6bc fdbb 52bc
00000180: 6ea1 09bc 5c1c 2a3c f51a c8bc cdd0 f1bc
00000190: 25c3 21bd 23ec 003d cce9 b2bb f8b5 41bc
000001a0: ddd4 dc3b faa7 01bd ac45 ab3c 6d01 bebc
000001b0: 9fea 36bd 093f 6e3b e61a a5bb 1668 94bc
000001c0: 9f6e b5bb 4ff0 cabb 34c8 3cbb 346f efb9
000001d0: df4a 9a3c 1655 b6bc f8df 4ebc f2cf b53c
000001e0: a63d ad3c 8d86 45bc e494 db3b cc80 373c
000001f0: c313 33bc d49f 203c 5239 cc39 dfa9 babb

fc2.weight f4 [64, 128]
0.116222635 0.089852 -0.12495847 -0.023050703 0.12935044 0.009731955 0.036458343 -0.15765771
0.056878094 0.0035002406 0.098523244 -0.012696521 0.11648413 -0.029077733 0.0011839492 0.034432065
0.110188544 -0.047909018 0.052700695 -0.035095762 0.0019001397 -0.005399707 -0.051878367 0.06634649
-0.12541214 0.014505443 0.1414104 0.010775338 0.08255771 0.018918112 0.11673475 -0.14587416
0.021330243 -0.06874296 0.011419318 0.04951314 0.038467307 0.010964465 0.14117156 0.014667933
-0.07020447 0.065550774 0.016481798 -0.0046755457 -0.030019779 -0.034861792 -0.0012238623 -0.07257374
0.09229733 -0.050353557 0.014954135 -0.020190999 -0.056444343 0.06413515 -0.16510361 -0.08760994
0.1303138 -0.09472644 -0.032802567 -0.02272529 0.13060975 0.0266215 -0.06784046 -0.023425965
0.006394454 -0.13786475 -0.08347158 0.067575954 -0.089332156 0.09921878 -0.10780195 -0.062523946
-0.012029361 0.02030497 -0.036009803 0.04049886 0.14497459 -0.059044737 -0.06398794 -0.107996225
-0.03134706 -0.025538458 -0.072907455 0.08302532 -0.16880389 -0.06549733 0.06571316 0.07921267
0.04797024 -0.093196966 -0.059704136 -0.103982784 -0.2057045 0.09114852 0.115363605 0.15053695
0.050053656 -0.0015572171 0.052385405 0.0804226 0.035684194 -0.15134859 0.020821592 -0.033612773
-0.052981853 0.008286644 0.11153832 0.036284823 0.037030693 0.15879518 0.02525531 -0.11131446
-0.03238278 0.048219625 0.062087864 -0.00350038 -0.08757046 -0.04532052 0.0053672935 -0.090180166
-0.13315345 -0.04568117 0.120467834 0.16103905 0.016341463 0.10480972 0.015013902 -0.07008184
-0.024389122 -0.06480372 0.056439497 0.05811673 -0.15614569 -0.07632135 -0.008405 0.21022595
0.10458906 -0.01110219 0.13550842 0.11958055 0.011811547 -0.09058716 -0.113601655 -0.011387223
0.01578547 0.014851426 -0.018028846 0.013756139 -0.033089817 0.11442502 0.05794058 0.094613306
-0.061256208 0.13001153 0.07124471 0.022787899 -0.07742541 0.16350786 0.08455375 -0.022953652
-0.1077342 0.07170961 0.0830462 0.0034194172 0.09203757 0.041718423 -0.082579 -0.120242566
0.11468391 -0.03767336 -0.16977517 -0.0021118945 0.14010693 0.11683459 0.05025062 0.059676405
0.04796639 -0.11395038 -0.17506264 0.11684915 0.044719193 -0.1111555 -0.051123843 -0.009445272
-0.015643118 0.0058847135 0.07738822 -0.007824364 -0.057523288 -0.06848184 -0.05868685 -0.08570719
0.102992214 0.06778483 -0.044418912 -0.042958677 -0.055043437 -0.15471958 0.06984361 0.037294284
-0.071857914 -0.09174385 -0.0021213684 -0.017075544 -0.0833657 -0.03895823 -0.06636567 -0.07091296
-0.013587314 0.10379299 0.02967758 0.056815006 -0.026257344 -0.03712933 -0.14914979 -0.0011355984
-0.12993573 0.14874357 0.039037876 0.21618329 0.08406003 0.107321754 0.05839973 -0.058239657
0.03448194 -0.0019586082 -0.07577844 -0.04079522 0.056898836 -0.040711515 -0.07081911 -0.08247626
0.123789735 -0.05098318 0.09249425 -0.027143592 0.04133845 0.0653349 0.09669826 -0.07391959
-0.037618693 -0.043083783 -0.040745277 -0.026563747 0.04183392 0.08784608 0.1577478 0.03832365
0.1299501 0.114508025 0.0686509 0.082271874 0.018303072 -0.04854488 0.051940195 -0.012324497
00000000: 2206 ee3d 5304 b83d 3aea ffbd d4d4 bcbc
00000010: 7174 043e c772 1f3c 5855 153d 0671 21be
00000020: 01f9 683d 4b64 653b 8ec6 c93d 1205 50bc
00000030: 3b8f ee3d 6d34 eebc be2e 9b3a a308 0d3d
00000040: 88aa e13d 3f3c 44bd afdc 573d 93c0 0fbd
00000050: 1c0e f93a 06f0 b0bb 697e 54bd abe0 873d
00000060: 0a6c 00be 3da8 6d3c e3cd 103e 0b8b 303c
00000070: 0414 a93d 28fa 9a3c a112 ef3d 0960 15be
00000080: c3bc ae3c 1cc9 8cbd 1718 3b3c 4ace 4a3d
00000090: e58f 1d3d 4da4 333c 478f 103e c551 703c
000000a0: 5cc7 8fbd 7c3f 863d d604 873c 5235 99bb
000000b0: 0aec f5bc 3dcb 0ebd 016a a0ba 8aa1 94bd
000000c0: 6206 bd3d 883f 4ebd 3002 753c 9867 a5bc
000000d0: 2f32 67bd 4a59 833d ec10 29be d76c b3bd
000000e0: fb70 053e f0ff c1bd fc5b 06bd 632a babc
000000f0: 90be 053e 5515 da3c f0ef 8abd cfe7 bfbc
00000100: 9188 d13b 6b2c 0dbe 26f3 aabd 4365 8a3d
00000110: c7f3 b6bd 3733 cb3d 45c7 dcbd 8e0c 80bd
00000120: cc16 45bc 9c56 a63c 047f 13bd 22e2 253d
00000130: 3874 143e e5d8 71bd 1c0c 83bd 202d ddbd
00000140: c665 00bd 0736 d1bc 8150 95bd 2e09 aa3d
00000150: edda 2cbe 7723 86bd 9f94 863d 413a a23d
00000160: 717c 443d 0dde bebd 538c 74bd edf4 d4bd
00000170: 33a4 52be 13ac ba3d c143 ec3d 5c26 1a3e
00000180: 1005 4d3d 891b ccba 1492 563d 9bb4 a43d
00000190: 9729 123d 20fb 1abe 0b92 aa3c 8cad 09bd
000001a0: 8003 59bd b4c4 073c 346e e43d 659f 143d
000001b0: 7fad 173d 349b 223e 39e4 ce3c d6f8 e3bd
000001c0: cea3 04bd f181 453d d84f 7e3d a266 65bb
000001d0: 2458 b3bd 02a2 39bd 1fe0 af3b 61b0 b8bd
000001e0: 6159 08be 2e1c 3bbd d7b7 f63d 6ce7 243e
000001f0: 88de 853c 7aa6 d63d dffc 753c 1187 8fbd
00000200: b2cb c7bc d0b7 84bd 1a2d 673d cf0b 6e3d
00000210: a8e4 1fbe 5e4e 9cbd 20b5 09bc 7945 573e
00000220: ca32 d63d f6e5 35bc b8c2 0a3e a6e6 f43d
00000230: 3885 413c c385 b9bd fca7 e8bd 7a91 3abc
00000240: 8850 813c 6553 733c 3bb1 93bc 6e61 613c
00000250: 3089 07bd aa57 ea3d 1a53 6d3d 9fc4 c13d
00000260: cae7 7abd be21 053e bfe8 913d b0ad ba3c
00000270: 3791 9ebd 9b6e 273e 842a ad3d 4c09 bcbc
00000280: c0a3 dcbd 7ddc 923d 2014 aa3d 4d18 603b
00000290: 327e bc3d f0e0 2a3d 2e1f a9bd bc41 f6bd
000002a0: 66df ea3d 624f 1abd 8bd9 2dbe b667 0abb
000002b0: 3178 0f3e f946 ef3d 98d3 4d3d 3f6f 743d
000002c0: 6878 443d d15e e9bd 9f43 33be 9b4e ef3d
000002d0: 792b 373d 7fa5 e3bd 3c67 51bd 58c0 1abc
000002e0: ff25 80bc 8ed4 c03b b77d 9e3d c331 00bc
000002f0: 8a9d 6bbd 3540 8cbd 9f61 70bd 4087 afbd
00000300: 95ed d23d c6d2 8a3d 9bf0 35bd 70f5 2fbd
00000310: 3a75 61bd cf6e 1ebe 2b0a 8f3d e4c1 183d
00000320: 3e2a 93bd 33e4 bbbd a806 0bbb 03e2 8bbc
00000330: a3bb aabd aa92 1fbd b9ea 87bd d03a 91bd
00000340: 539d 5ebc 6b91 d43d 651e f33c dab6 683d
00000350: a419 d7bc ed14 18bd b9ba 18be 5cd8 94ba
00000360: df0d 05be 3c50 183e 2ee6 1f3d 275f 5d3e
00000370: aa27 ac3d 82cb db3d 8e34 6f3d b58c 6ebd
00000380: ef3c 0d3d fe5b 00bb ba31 9bbd e318 27bd
00000390: c10e 693d 1ec1 26bd 9c09 91bd 50e9 a8bd
000003a0: 7985 fd3d bdd3 50bd a06d bd3d 3d5c debc
000003b0: 8252 293d 4ece 853d bd09 c63d 2763 97bd
000003c0: 0f16 1abd 9f78 30bd 85e4 26bd 379c d9bc
000003d0: 0b5a 2b3d a5e8 b33d a488 213e 42f9 1c3d
000003e0: a411 053e 2f83 ea3d d898 8c3d 287e a83d
000003f0: 53f0 953c ffd6 46bd 3ebf 543d b0ec 49bc

fc2.bias f4 [64]
-0.042999197 0.05683093 -0.07306398 -0.029405395 -0.06464794 -0.06258506 -0.05517009 0.09536686
0.017507512 0.012719751 -0.03564595 0.10168209 0.06459089 -0.010095175 0.020894922 -0.07274473
-0.107235156 0.061632954 -0.0434047 0.12227316 0.03742236 -0.071344726 0.07948977 -0.0070320526
-0.0073058573 -0.069118 -0.022772793 0.078041114 0.006972551 0.07154023 -0.01445992 0.04447297
0.08203181 0.032001764 -0.04776179 -0.008244879 0.101637915 -0.05987717 0.044028804 0.034200497
0.04043403 0.024109975 -0.057372477 0.0107359355 0.0047528176 -0.082840055 -0.0026352126 -0.040476456
-0.04838969 0.00968696 -0.019691605 0.027374173 0.097575255 -0.0044454443 -0.005592414 0.07194914
0.02705369 0.12862274 -0.036473174 -0.062241275 -0.017074816 -0.066086076 0.008177338 0.04696989
00000000: ed1f 30bd 8dc7 683d 91a2 95bd 95e3 f0bc
00000010: 2466 84bd 992c 80bd 08fa 61bd b34f c33d
00000020: ea6b 8f3c 8166 503c 7d01 12bd b33e d03d
00000030: 3b48 843d 3c66 25bc d42b ab3c 30fb 94bd
00000040: 1b9e dbbd d672 7c3d 20c9 31bd 5a6a fa3d
00000050: 3048 193d 2f1d 92bd 88cb a23d 226d e6bb
00000060: f965 efbb bd8d 8dbd 028e babc 05d4 9f3d
00000070: ff79 e43b af83 923d 4de9 6cbc 4a29 363d
00000080: 4b00 a83d 4814 033d dea1 43bd 8715 07bc
00000090: 8a27 d03d c341 75bd 8c57 343d d215 0c3d
000000a0: 279e 253d 4882 c53c 67ff 6abd c7e5 2f3c
000000b0: 86bd 9b3b 0ca8 a9bd 88b3 2cbb a4ca 25bd
000000c0: 4534 46bd 0eb6 1e3c 4a50 a1bc cd3f e03c
000000d0: 89d5 c73d 17ab 91bb 9240 b7bb 125a 933d
000000e0: b39f dd3c aeb5 033e e564 15bd b5f0 7ebd
000000f0: 7ce0 8bbc 2358 87bd 3efa 053c 8063 403d

fc3.weight f4 [10, 64]
-0.10550777 0.09508288 0.57860374 -0.38600692 -0.1943933 -0.071058184 0.20420867 -0.023763038
-0.16787921 -0.06001355 0.06767214 0.08009857 0.17154887 -0.24635525 0.093339056 0.19452423
-0.25015283 -0.19081728 -0.15504493 -0.22416447 -0.18384688 -0.11660096 -0.07052452 0.011062653
-0.028664235 -0.21819496 -0.19397995 0.005954995 0.08594676 0.04322787 0.013755319 -0.019704536
-0.012538323 0.03775652 -0.17608549 0.2884247 -0.315027 -0.12337901 0.122621864 0.12301527
0.17608559 -0.013344331 -0.2627769 0.007850231 0.32458517 0.09323227 0.0019456176 0.32184532
0.03671224 -0.17135872 0.12240934 0.40765664 -0.26345485 -0.10534336 -0.34949094 -0.209725
-0.30580282 0.11320758 0.106199674 0.16832757 -0.21120419 0.10509342 0.021942982 0.08632398
-0.23389934 -0.2623758 -0.12849182 0.28937253 0.032481078 0.28565395 -0.08883987 -0.20809792
0.1924199 -0.3184598 -0.0402565 0.10601088 -0.13304012 0.22672963 -0.056525584 0.18404843
0.16706873 -0.0068168263 -0.12029834 0.13665465 -0.29494593 -0.018657617 -0.37198597 -0.18335709
0.093287334 0.18768385 0.40696007 0.13582912 -0.041313116 -0.2070192 -0.19385608 0.14269711
-0.10400278 0.15398692 0.54708993 -0.08344783 0.27956924 0.296939 0.19416001 0.06711287
0.15093584 0.1132655 -0.27939528 -0.026275314 -0.014859076 -0.13455832 0.053667884 -0.1822543
0.123095304 0.30567798 0.15217231 -0.21161635 -0.23484538 -0.3038942 0.4404199 -0.061200786
0.35630214 -0.30613917 -0.09900078 -0.07817279 -0.30718297 -0.126493 -0.26510787 -0.08944188
-0.221603 -0.25701788 0.21952471 0.39987203 0.0063600736 0.07208318 -0.15133588 0.23874345
-0.3463849 -0.35771453 0.026022356 -0.04697243 -0.05116372 -0.21522693 0.15133981 0.18936338
-0.24427935 0.47132322 0.2014402 -0.07871032 -0.2180907 -0.09615014 0.21282195 0.09969928
0.04680357 0.25149566 -0.23229235 0.118513435 0.1982816 0.20899835 0.05967957 -0.12030754
0.03322471 0.32212597 0.014767126 0.1348511 0.3661791 -0.31625527 0.08756676 -0.27800083
-0.20529443 -0.34165975 -0.27204162 -0.03348198 0.34146643 0.19763467 0.042776074 0.36495385
0.08788178 0.1991099 0.13742891 -0.17404534 -0.3182885 -0.15743256 -0.13531365 -0.023992226
0.2949183 0.17640531 -0.44884062 0.017433345 -0.0037325073 -0.02031439 -0.15838629 0.05260517
0.2538874 -0.10640531 -0.33348694 0.31312224 -0.119967476 -0.3095597 -0.48946664 -0.17095415
0.27848527 0.31864354 0.24215904 -0.3184295 -0.18166046 0.21743114 0.095082834 -0.13637662
-0.0061399625 -0.1492031 0.27534652 0.15011407 -0.25974923 0.05147642 0.16679963 0.1571659
-0.15199782 -0.0980858 -0.41355628 0.03653859 -0.30215287 0.17178376 0.016768346 -0.02724316
0.022874927 0.03834792 -0.19186379 -0.22813444 0.1365536 0.17612019 -0.23082605 0.036366604
-0.14895976 0.062929004 0.2593125 -0.072652616 0.45168215 -0.1306711 0.31167382 -0.059802618
-0.025156185 0.08621036 -0.024709305 -0.011001622 -0.4404831 0.057951014 -0.011389263 0.117612556
-0.19470794 0.53442645 0.16882165 -0.31344345 0.009671079 0.11011448 -0.09991955 0.032978244
00000000: 7514 d8bd d0ba c23d 601f 143f b3a2 c5be
00000010: 0a0f 47be f486 91bd 141c 513e b4aa c2bc
00000020: 87e8 2bbe c5d0 75bd b197 8a3d b80a a43d
00000030: 82aa 2f3e 8d44 7cbe 8c28 bf3d 5c31 473e
00000040: 0814 80be 9b65 43be 19c4 1ebe 5f8b 65be
00000050: 5b42 3cbe 7ccc eebd 296f 90bd 2140 353c
00000060: 42d1 eabc 806e 5fbe aea2 46be 1e22 c33b
00000070: db04 b03d b50f 313d fd5d 613c 686b a1bc
00000080: 8a6d 4dbc 95a6 1a3d c14f 34be 67ac 933e
00000090: 384b a1be 22ae fcbd 2c21 fb3d 6eef fb3d
000000a0: c84f 343e 2ea2 5abc b28a 86be 419e 003c
000000b0: 0730 a63e 8ff0 be3d 1804 ff3a e9c8 a43e
000000c0: 935f 163d a978 2fbe c0b1 fa3d 5fb8 d03e
000000d0: 8ee3 86be 42be d7bd 7af0 b2be 27c2 56be
000000e0: 3092 9cbe 60d9 e73d 377f d93d 105e 2c3e
000000f0: e945 58be 383b d73d c5c1 b33c a0ca b03d
00000100: 4f83 6fbe 1f56 86be 5c93 03be a328 943e
00000110: e10a 053d 3c41 923e aef1 b5bd 9f17 55be
00000120: b909 453e 2a0d a3be 00e4 24bd 3b1c d93d
00000130: ab3b 08be d02b 683e 5f87 67bd 3177 3c3e
00000140: 1114 2b3e af5f dfbb fa5e f6bd 32ef 0b3e
00000150: 2703 97be dcd7 98bc f274 bebe f6c1 3bbe
00000160: 6e0d bf3d 3230 403e 125d d03e ca16 0b3e
00000170: f137 29bd d7fc 53be 3582 46be 311f 123e
00000180: 69ff d4bd bfae 1d3e 160e 0c3f b2e6 aabd
00000190: b323 8f3e 6308 983e e2d1 463e 7972 893d
000001a0: ed8e 1a3e bef7 e73d e60c 8fbe 543f d7bc
000001b0: 7b73 73bc a8c9 09be dbd2 5b3d dfa0 3abe
000001c0: 6419 fc3d d381 9c3e 0fd3 1b3e f5b1 58be
000001d0: 4f7b 70be 0598 9bbe b87e e13e adad 7abd
000001e0: 3c6d b63e 46be 9cbe ecc0 cabd 0e19 a0bd
000001f0: 1647 9dbe 6287 01be 38bc 87be 4e2d b7bd
00000200: e6eb 62be d997 83be 16cb 603e 07bc cc3e
00000210: 2a68 d03b 59a0 933d cbf7 1abe 2a79 743e
00000220: 5d59 b1be 5c26 b7be d62c d53c 2a66 40bd
00000230: 0d91 51bd 7364 5cbe d3f8 1a3e 79e8 413e
00000240: 5e24 7abe 4751 f13e 5746 4e3e e032 a1bd
00000250: 2b53 5fbe 5dea c4bd ffed 593e 232f cc3d
00000260: 1ab5 3f3d 0ac4 803e 0cde 6dbe 2cb7 f23d
00000270: 550a 4b3e aa03 563e 9172 743d cd63 f6bd
00000280: a216 083d b2ed a43e d1f1 713c 6816 0a3e
00000290: d47b bb3e 36ec a1be 3456 b33d 2056 8ebe
000002a0: b438 52be 07ee aebe 0a49 8bbe 6724 09bd
000002b0: b0d4 ae3e be60 4a3e f735 2f3d 3bdb ba3e
000002c0: 5dfb b33d 77e3 4b3e 2aba 0c3e f138 32be
000002d0: b6f6 a2be 0036 21be a98f 0abe 588b c4bc
000002e0: 88ff 963e 98a3 343e 70ce e5be 60d0 8e3c
000002f0: 159d 74bb 5d6a a6bc 0430 22be 8578 573d
00000300: 87fd 813e 07eb d9bd cdbe aabe 8f51 a03e
00000310: 82b1 f5bd 9c7e 9ebe 5f9b fabe 9b0e 2fbe
00000320: 9f95 8e3e 3f25 a33e 8af8 773e 3109 a3be
00000330: 3305 3abe 45a6 5e3e caba c23d 50a6 0bbe
00000340: bd31 c9bb b3c8 18be 38fa 8c3e 81b7 193e
00000350: dafd 84be f0d8 523d 86cd 2a3e 19f0 203e
00000360: 51a5 1bbe 35e1 c8bd a6bd d3be 7da9 153d
00000370: c8b3 9abe 15e8 2f3e c55d 893c 0c2d dfbc
00000380: 3364 bb3c b512 1d3d f177 44be 139c 69be
00000390: b5d4 0b3e da58 343e aa5d 6cbe 26f5 143d
000003a0: e888 18be ece0 803d 9cc4 843e e5ca 94bd
000003b0: e242 e73e a5ce 05be b693 9f3e 97f3 74bd
000003c0: 5814 cebc 0f8f b03d 2b6b cabc 2640 34bc
000003d0: 0087 e1be 0b5e 6d3d 089a 3abc dade f03d
000003e0: 8561 47be 2cd0 083f 95df 2c3e a97b a0be
000003f0: 7273 1e3c b383 e13d 9fa2 ccbd 3214 073d

fc3.bias f4 [10]
-0.055709444 0.07652556 -0.08982106 0.13242032 0.0013160576 -0.02916366 -0.12189267 -0.02188144
0.07551125 0.19304715
00000000: 962f 64bd 6fb9 9c3d 1bf4 b7bd 3199 073e
00000010: 917f ac3a a1e8 eebc dda2 f9bd b540 b3bc
00000020: a4a5 9a3d 27ae 453e
