assets/mnist_snn_ReLU_model.pth (torch, 440330 bytes, 6 tensors)

fc1.weight f4 [128, 784]
0.014441343 -0.014427306 0.009031074 0.023595495 0.02723294 -0.031346157 -0.02088143 0.026350064
0.03367503 0.011986615 0.008452448 0.030721096 0.021992674 0.011492175 -0.006134484 0.0131792445
0.028557694 -0.013258753 -0.02275626 0.03230232 0.0049862643 -0.021804595 -0.013820382 0.0073445537
0.008352892 0.018734438 -0.02013506 -0.0061185183 -0.03266295 0.03307998 0.025426554 -0.0047831032
-0.009207474 0.025525222 -0.024941847 0.0023224205 -0.019046895 0.018491616 0.028412195 -0.0023908764
-0.0043616127 -0.0040925187 0.011064273 0.020754563 0.028929595 -0.032436896 0.0025535873 -0.025108756
-0.018407045 0.0075389235 0.02536709 0.01821309 0.013094762 0.025783258 0.021623721 -0.001471442
-0.014183671 -0.012490258 -0.008599881 -0.011898283 0.00038680088 -0.029142834 0.005529628 -0.021621035
0.010154136 0.01621427 0.036541954 0.022384424 0.00834589 -0.03342313 0.010295456 -0.02158884
0.02375094 -0.001275386 -0.0023359365 0.02205653 -0.027584383 0.02926369 0.024203854 0.013296906
-0.021510247 0.013542889 0.0049609635 -0.011234542 -0.03131544 -0.02436093 -0.024381077 -0.0039040046
-0.015495307 0.026063683 -0.021732213 0.0028059173 -0.00869749 0.0051309085 -0.034178533 -0.040183038
-0.04933369 -0.005868261 -0.010173178 -0.036870293 -0.06292654 -0.0217488 -0.029889334 0.015912727
-0.014951305 -0.019550739 0.0317513 -0.029967383 -0.021799415 -0.018967059 0.022172993 0.022688566
0.027514024 0.023444736 -0.018458568 0.004600953 -0.025472969 0.016852 -0.013044 -0.035499148
0.00025519327 0.039941203 -0.02527838 -0.0140508935 0.013812836 -0.03372883 -0.045913957 -0.009724539
-0.030736502 0.010228509 0.008417328 -0.013448124 -0.0010689517 -0.022785755 0.016550971 0.027259033
0.0045194095 -0.018986668 -0.005108191 0.009069187 -0.015264143 0.037480384 0.021519957 0.023592867
-0.03234607 -0.03355782 0.0077610784 0.017730197 0.027853167 0.05585354 0.046675872 0.03681221
0.035393104 0.06267197 0.019146446 -0.027858904 -0.013114365 0.00404994 -0.0048684115 -0.036339648
-0.02918024 0.012382892 0.023170074 -0.0006074634 -0.012014564 0.037501343 0.016301962 0.0067824447
0.023583053 0.019972334 0.005923863 0.03198054 0.0251171 0.021118365 -0.018374637 0.008833634
0.048458524 0.02199506 0.050565217 0.014054625 0.050962448 0.05938111 0.03175738 0.041250043
-0.011023456 0.00849091 -0.019422082 0.037360433 0.0111620445 0.02363322 0.019998454 0.027666207
0.025470208 0.0017041233 0.01094512 -0.016037729 -0.0053469148 -0.009430057 0.03698686 0.0327897
-0.029480709 -0.015761673 0.04016828 0.055874284 0.046966862 0.0038624771 -0.004454263 0.04743354
0.06866344 -0.0021956244 -0.019817147 -0.047189705 -0.03814413 -0.025982276 0.0037330564 0.03360743
-0.0015057795 0.050827317 0.062371828 0.01982285 -0.021024816 0.026107296 0.028246019 -0.015659815
-0.008184327 -0.008854328 0.026149316 0.011263861 0.040649105 0.003823927 0.029430471 -0.006461152
0.030743167 0.020535657 0.02885653 0.020375837 0.05787623 0.02046579 -0.0026668457 -0.038396996
-0.009931982 -0.02224745 0.0106353145 0.039560728 0.0028352258 0.019519515 0.0078129675 0.014932532
-0.026053512 0.011357989 -0.0047635133 -0.026909951 0.004114626 -0.0052545383 -0.0087316 -0.0073729153
00000000: 629b 6c3c 8260 6cbc 12f7 133c 574b c13c
00000010: 9d17 df3c d464 00bd 880f abbc 17dc d73c
00000020: d4ee 093d 8263 443c 237c 0a3c cfaa fb3c
00000030: fb29 b43c ad49 3c3c c803 c9bb c2ed 573c
00000040: d3f1 e93c 3e3b 59bc 566b babc 704f 043d
00000050: d163 a33b 8d9f b2bc e26e 62bc 95aa f03b
00000060: 91da 083c f778 993c 48f2 a4bc da7d c8bb
00000070: 96c9 05bd e07e 073d 594b d03c 94bb 9cbb
00000080: f2da 16bc 451a d13c d852 ccbc c033 183b
00000090: 3c08 9cbc bb7b 973c b1c0 e83c 40b0 1cbb
000000a0: dceb 8ebb 891a 86bb ed46 353c 7905 aa3c
000000b0: c2fd ec3c 8ddc 04bd 165a 273b e1b0 cdbc
000000c0: 5fca 96bc 1309 f73b a5ce cf3c 9e33 953c
000000d0: 6a8b 563c 6937 d33c 3b24 b13c 67dd c0ba
000000e0: a162 68bc f0a3 4cbc 84e6 0cbc 04f1 42bc
000000f0: 89cb ca39 f4bc eebc e231 b53b 991e b1bc
00000100: 895d 263c cad3 843c 04ad 153d 8a5f b73c
00000110: 33bd 083c b1e6 08bd 46ae 283c 14db b0bc
00000120: 5591 c23c da2a a7ba 8316 19bb e5af b43c
00000130: a5f8 e1bc 68ba ef3c 2947 c63c 44db 593c
00000140: 4236 b0bc fee2 5d3c 948f a23b 1611 38bc
00000150: 9e44 00bd 9390 c7bc d3ba c7bc 54da 7fbb
00000160: 07e0 7dbc 8183 d53c c107 b2bc 7be3 373b
00000170: eb7f 0ebc 2e21 a83b cafe 0bbd f896 24bd
00000180: 2012 4abd 8b4a c0bb 67ad 26bc 4e05 17bd
00000190: a1df 80bd 8a2a b2bc 7ada f4bc 685b 823c
000001a0: 52f6 74bc df28 a0bc a70d 023d 287e f5bc
000001b0: b094 b2bc ce60 9bbc 23a4 b53c 5fdd b93c
000001c0: 1765 e13c 2d0f c03c 6c36 97bc 97c3 963b
000001d0: b0ac d0bc 350d 8a3c 80b6 55bc 8e67 11bd
000001e0: 76cb 8539 6399 233d 9b14 cfbc b835 66bc
000001f0: 3c4f 623c 3e27 0abd 4610 3cbd ac53 1fbc
00000200: 1ecb fbbc 7a95 273c d5e8 093c 8555 5cbc
00000210: 111c 8cba 31a9 babc e795 873c 564e df3c
00000220: 8e17 943b ee89 9bbc 9d62 a7bb ed96 143c
00000230: 7516 7abc 0885 193d 9f4a b03c d445 c13c
00000240: 507d 04bd ed73 09bd a550 fe3b eb3e 913c
00000250: 532c e43c aec6 643d 332f 3f3d 66c8 163d
00000260: 5cf8 103d 295a 803d 02d9 9c3c 5b38 e4bc
00000270: a2dd 56bc 5cb5 843b 3287 9fbb e2d8 14bd
00000280: 660b efbc 9de1 4a3c 2bcf bd3c 2e3e 1fba
00000290: bcd8 44bc 029b 193d b18b 853c 453f de3b
000002a0: 3f31 c13c 059d a33c f71c c23b 07fe 023d
000002b0: 60c2 cd3c 6c00 ad3c 6886 96bc f2ba 103c
000002c0: 727c 463d fc2e b43c 791d 4f3d 5f45 663c
000002d0: 00be 503d 9b39 733d 0714 023d cef5 283d
000002e0: ba9b 34bc 751d 0b3c 0f1b 9fbc 4107 193d
000002f0: 02e1 363c 749a c13c ccd3 a33c 3ea4 e23c
00000300: e6a6 d03c e45c df3a 2953 333c 8e61 83bc
00000310: 2c35 afbb 8780 1abc 897f 173d 7e4e 063d
00000320: 8781 f1bc a01e 81bc 7f87 243d 6fdc 643d
00000330: 5360 403d 9d21 7d3b 11f5 91bb ac49 423d
00000340: 6b9f 8c3d 77e4 0fbb 9257 a2bc fe49 41bd
00000350: 053d 1cbd c8d8 d4bc 4ba6 743b f2a7 093d
00000360: 935d c5ba 4e30 503d 9a79 7f3d 8863 a23c
00000370: 3c3c acbc f8de d53c 3264 e73c 0349 80bc
00000380: 8e17 06bc be11 11bc 1737 d63c 0f8c 383c
00000390: ad7f 263d d99a 7a3b 2c18 f13c 12b8 d3bb
000003a0: 18d9 fb3c 653a a83c 8864 ec3c 3aeb a63c
000003b0: a00f 6d3d dfa7 a73c 3fc6 2ebb 2b46 1dbd
000003c0: c0b9 22bc 4940 b6bc be3f 2e3c 6e0a 223d
000003d0: 32cf 393b 64e7 9f3c f601 003c 94a7 743c
000003e0: 2d6e d5bc dc16 3a3c 3f17 9cbb 4272 dcbc
000003f0: fcd3 863b 432e acbb fc0e 0fbc 7f98 f1bb

fc1.bias f4 [128]
-0.013889947 -0.00996474 -0.006035117 -0.013713027 -0.01579148 0.015550639 0.01323154 0.021814864
0.006363308 0.006839958 0.009869914 -0.003974299 0.00030189092 -0.03225574 -0.027472029 -0.029602092
-0.032830156 0.033142846 0.0069471267 0.014235389 -0.013703588 -0.030124173 0.028552182 -0.02888383
0.0044011497 0.032661807 0.0058072396 0.012075176 0.0074980007 -0.01123598 -0.024224492 -0.0078924345
0.028213147 0.0162421 0.039688963 -0.020074476 -0.015757266 0.0072619324 0.00766737 -0.021871189
-0.036065653 -0.033085763 -0.04681533 0.03145831 0.032554124 -0.008812699 -0.032492157 -0.031716403
-0.020926476 0.015358583 -0.0011776108 0.008840861 -0.017014354 -0.021134883 -0.0245602 -0.017129367
0.015515343 0.0063475803 -0.011816504 0.031717345 -0.0018844372 -0.011868572 0.037314266 0.01970653
-0.041711375 -0.011459982 0.0042201937 0.018435702 0.0054950616 -0.032414973 -0.025198994 -0.019201608
-0.02122508 0.03018823 0.009504416 0.0408202 0.03556236 -0.021979077 0.0076973797 -0.024229055
0.027918207 -0.011663806 0.021573685 0.0071007414 0.009556415 0.004211787 0.0029201212 -0.013881281
-0.029001538 0.011102853 0.029611096 -0.025377052 -0.009311111 -0.02468579 -0.00470839 -0.024846846
-0.0017859866 -0.029302074 -0.034377716 0.0003264335 0.017539106 -0.0061126095 0.028142892 -0.03235745
0.0029358745 -0.03915809 0.012880677 -0.019233376 -0.010769139 0.012171978 -0.03196237 -0.023417449
-0.0023948806 0.01566797 0.032692727 0.02272156 -0.055890556 0.018070491 -0.024760611 -0.016619235
0.03709408 -0.002298838 0.029992405 -0.0075370762 0.025688048 0.008863745 -0.017837565 -4.8734597e-05
00000000: a992 63bc 2643 23bc 3bc2 c5bb 9bac 60bc
00000010: 225d 81bc 1bc8 7e3c 1ac9 583c 16b5 b23c
00000020: 4c83 d03b ba21 e03b 6bb5 213c d63a 82bb
00000030: 1d47 9e39 981e 04bd 050d e1bc 1680 f2bc
00000040: ea78 06bd cbc0 073d b9a4 e33b 8d3b 693c
00000050: 0485 60bc f8c6 f6bc 44e6 e93c c89d ecbc
00000060: 8537 903b 63c8 053d a84a be3b f6d6 453c
00000070: cab1 f53b 1e17 38bc 7172 c6bc 454f 01bc
00000080: 421f e73c 270e 853c e590 223d 3a73 a4bc
00000090: 6215 81bc 81f5 ed3b 903e fb3b 352b b3bc
000000a0: 94b9 13bd f084 07bd 6ec1 3fbd 6eda 003d
000000b0: 7957 053d 2363 10bc 7f16 05bd 0fe9 01bd
000000c0: 006e abbc 91a2 7b3c 105a 9aba 42d9 103c
000000d0: b061 8bbc 1023 adbc 7932 c9bc e352 8cbc
000000e0: 1134 7e3c 5dff cf3b 039a 41bc 0cea 013d
000000f0: 38ff f6ba 6674 42bc d8d6 183d 976f a13c
00000100: 8cd9 2abd a6c2 3bbc 8d49 8a3b 7806 973c
00000110: eb0f b43b 90c5 04bd 1f6e cebc b14c 9dbc
00000120: 38e0 adbc 4f4d f73c 69b8 1b3c 1533 273d
00000130: d6a9 113d 770d b4bc 4d3a fc3b 037c c6bc
00000140: b9b4 e43c 8c19 3fbc 4cbb b03c 56ad e83b
00000150: 8292 1c3c 0803 8a3b 815f 3f3b 506e 63bc
00000160: a294 edbc bee8 353c f892 f23c 89e3 cfbc
00000170: a18d 18bc db39 cabc d748 9abb 9d8b cbbc
00000180: c417 eaba e70a f0bc a6cf 0cbd 2a25 ab39
00000190: 2cae 8f3c 494c c8bb ec8b e63c 3f89 04bd
000001a0: cd67 403b 3c64 20bd 7a09 533c 508f 9dbc
000001b0: 0b71 30bc fa6c 473c f9ea 02bd f3d5 bfbc
000001c0: 6ef3 1cbb 1d5a 803c cfe8 053d 9122 ba3c
000001d0: 7fed 64bd 9108 943c c4d6 cabc 1025 88bc
000001e0: f6ef 173d 1aa8 16bb a2b2 f53c 94f9 f6bb
000001f0: be6f d23c 3e39 113c 1620 92bc 6068 4cb8

fc2.weight f4 [64, 128]
-0.08031513 0.09508659 -0.099874265 -0.08348631 0.0549604 0.028382376 -0.066670656 -0.08229824
-0.07194176 -0.017098097 0.16461183 0.056473695 0.060250755 -0.05333501 0.05245106 0.028495768
0.048605982 0.088885956 -0.060235877 0.12378081 0.003076791 0.07507802 -0.08897461 -0.054985553
-0.006542294 -0.020496914 0.058438025 -0.06969266 -0.03778945 0.028060293 0.06818018 0.008843393
-0.04772648 -0.067868516 0.049342807 -0.2060925 0.106943406 0.04167821 0.012229023 -0.012740438
-0.09941905 -0.12478521 0.061587702 -0.10784783 -0.1467891 0.012512517 -0.0720853 -0.070915714
0.06301469 0.087624826 -0.048721034 0.010257124 0.07133215 0.051196635 0.011535816 0.03417732
-0.052889932 0.04517772 0.032153495 0.051103055 0.011770339 -0.01833993 0.033901803 -0.15066908
-0.088871025 -0.11247646 -0.1287509 0.011090089 -0.12403709 0.06098876 -0.025615208 0.03195271
0.09675011 0.11021607 -0.05660713 0.16523163 -0.23572117 0.10100664 -0.07704597 0.09032713
-0.14866647 0.007263631 -0.12703958 -0.084755674 0.03609474 -0.044925347 0.08549487 0.110987574
-0.009837095 -0.12607901 0.0048349886 0.033019245 0.07097151 0.15698132 0.0857261 0.031534974
-0.019101525 -0.09709109 0.09433996 -0.0041057905 0.09626436 0.015327774 -0.08312717 -0.14596844
-0.15750673 0.05107781 0.04671726 0.12338025 0.008581159 -0.12941739 -0.0047401506 -0.024963584
-0.21188866 0.065569684 0.045249417 0.101108134 0.13484123 0.002925575 0.070124224 -0.1388189
0.01903052 0.115945406 0.09241255 0.023290768 0.035917625 -0.0025068587 -0.10874261 0.03364631
0.08956789 0.03415952 -0.06792429 -0.013989013 0.035973333 0.073124394 -0.07305789 -0.00572309
-0.042524967 0.0412178 0.07540747 0.0048620948 -0.006177419 -0.103238314 -0.012173117 0.008445193
0.03204476 0.04569868 0.015419886 0.03825852 -0.014617781 -0.0005153632 0.018669315 0.08914917
0.0612947 0.023848448 -0.007254303 -0.039890837 -0.05955621 -0.060517225 -0.013163798 -0.075499736
-0.06662237 -0.04074387 0.0010958647 0.083798446 -0.113268174 0.052720826 0.026644805 0.10684754
-0.009420108 0.07305643 0.052199833 -0.06864391 0.06255543 0.08919841 0.08398104 -0.08948179
-0.031058582 0.09037382 0.020540655 -0.052215926 -0.057474513 -0.10188226 0.065196075 0.012433545
-0.016481088 -0.067690656 0.011826986 -0.042291462 -0.007987805 -0.09043899 0.040332936 -0.070867255
0.053469 -0.021116655 -0.008714804 0.056705993 0.0009968324 -0.045653 -0.017214002 0.049328756
-0.070147924 0.10617283 0.076042384 -0.045732174 0.15546802 0.09085126 0.06952713 0.062176373
0.038846694 0.00035184753 -0.021944312 -0.09551071 0.059246406 0.04982946 -0.027472297 0.10287395
0.04259544 0.058591347 -0.022111041 0.036563933 0.01451614 -0.07740662 0.026752822 -0.07204165
0.0054878625 -0.050028853 -0.054366246 0.08937984 -0.017463025 -0.028575815 -0.057838928 0.028719787
-0.013080357 -0.1930261 0.1049339 0.1158798 -0.12486352 0.08026577 -0.060678706 0.03795091
0.061099555 -0.034369357 -0.040761847 0.011668463 0.18803173 -0.034265757 0.02163825 -0.009589401
-0.027062248 0.10602266 -0.02352729 -0.09288683 0.0049753967 -0.09171567 0.06443579 -0.037524097
00000000: 427c a4bd c2bc c23d e18a ccbd dffa aabd
00000010: 281e 613d 2882 e83c a08a 88bd fb8b a8bd
00000020: 3456 93bd 4f11 8cbc 0190 283e f650 673d
00000030: 7fc9 763d d075 5abd ecd6 563d f56f e93c
00000040: 1117 473d d709 b63d e5b9 76bd cb80 fd3d
00000050: fda3 493b 81c2 993d 5238 b6bd 8838 61bd
00000060: bd60 d6bb 25e9 a7bc b65c 6f3d 06bb 8ebd
00000070: 1cc9 1abd b3de e53c 0da2 8b3d e1e3 103c
00000080: d77c 43bd a6fe 8abd af1b 4a3d ea09 53be
00000090: 2505 db3d c5b6 2a3d 3d5c 483c 45bd 50bc
000000a0: 379c cbbd 638f ffbd 6343 7c3d 53df dcbd
000000b0: e24f 16be 4d01 4d3c 75a1 93bd 423c 91bd
000000c0: d90d 813d a574 b33d b58f 47bd 7f0d 283c
000000d0: 9716 923d 90b3 513d b800 3d3c 84fd 0b3d
000000e0: 1da3 58bd 460c 393d 62b3 033d 7051 513d
000000f0: 61d8 403c 9f3d 96bc 9edc 0a3d ff48 1abe
00000100: 0302 b6bd 0f5a e6bd 47d7 03be 34b3 353c
00000110: 2807 febd 5acf 793d fcd6 d1bc d8e0 023d
00000120: ec24 c63d f7b8 e13d e1dc 67bd 7b32 293e
00000130: e460 71be 92dc ce3d 47ca 9dbd 6efd b83d
00000140: 063c 18be c103 ee3b aa16 02be 6294 adbd
00000150: 14d8 133d a403 38bd ef17 af3d 744d e33d
00000160: c42b 21bc db1a 01be d36e 9e3b 303f 073d
00000170: 8359 913d b6bf 203e 2a91 af3d d12a 013d
00000180: cd7a 9cbc b2d7 c6bd 4f35 c13d de89 86bb
00000190: 4026 c53d 5821 7b3c 943e aabd c078 15be
000001a0: 7249 21be f736 513d 995a 3f3d c9ae fc3d
000001b0: fd97 0c3c fe85 04be 4453 9bbb 6e80 ccbc
000001c0: 57f9 58be 6649 863d 7457 393d c811 cf3d
000001d0: d213 0a3e 01bb 3f3b 4a9d 8f3d 8b26 0ebe
000001e0: e5e5 9b3c c974 ed3d ca42 bd3d 48cc be3c
000001f0: 5c1e 133d 1c4a 24bb 72b4 debd b7d0 093d
00000200: 5f6f b73d daea 0b3d e41b 8bbd 2c32 65bc
00000210: c658 133d 3ec2 953d 609f 95bd c288 bbbb
00000220: a92e 2ebd ffd3 283d 3b6f 9a3d 3552 9f3b
00000230: f26b cabb 9c6e d3bd c171 47bc b55d 0a3c
00000240: 5e41 033d 8a2e 3b3d b1a3 7c3c f7b4 1c3d
00000250: 6b7f 6fbc 7019 07ba 64f0 983c d793 b63d
00000260: 2710 7b3d d25d c33c 81b5 edbb 9364 23bd
00000270: 36f1 73bd e9e0 77bd f8ac 57bc 9b9f 9abd
00000280: 4f71 88bd 0be3 26bd 1ea3 8f3a 859e ab3d
00000290: 25f9 e7bd cbf1 573d 3546 da3c e2d2 da3d
000002a0: cc56 1abc 9c9e 953d 7ecf 553d 2e95 8cbd
000002b0: 101d 803d a8ad b63d 40fe ab3d 3b42 b7bd
000002c0: 916e febc e915 b93d e044 a83c 5ee0 55bd
000002d0: 656a 6bbd a5a7 d0bd 8585 853d 11b6 4b3c
000002e0: 5903 87bc 66a1 8abd fac5 413c d039 2dbd
000002f0: 48df 02bc 1438 b9bd 2634 253d da22 91bd
00000300: 4f02 5b3d d6fc acbc 8ac8 0ebc 8b44 683d
00000310: 25a8 823a a4fe 3abd 6104 8dbc f30c 4a3d
00000320: b7a9 8fbd 2471 d93d 1cbc 9b3d a951 3bbd
00000330: 0233 1f3e 3a10 ba3d 3d64 8e3d a7ac 7e3d
00000340: b61d 1f3d 2d78 b839 8fc4 b3bc 1e9b c3bd
00000350: 5cac 723d fa19 4c3d 950d e1bc 94af d23d
00000360: 8e78 2e3d 7bfd 6f3d 3722 b5bc 10c4 153d
00000370: 1bd5 6d3c 5d87 9ebd bc28 db3c 938a 93bd
00000380: 87d3 b33b 0eeb 4cbd 24af 5ebd c70c b73d
00000390: 9e0e 8fbc d417 eabc 83e8 6cbd c245 eb3c
000003a0: fe4e 56bc a2a8 45be 96e7 d63d 6352 ed3d
000003b0: 72b8 ffbd 6162 a43d 3c8a 78bd 6a72 1b3d
000003c0: 8743 7a3d e2c6 0cbd e5f5 26bd 152d 3f3c
000003d0: 648b 403e 405a 0cbd b342 b13c dd1c 1dbc
000003e0: a6b1 ddbc 6922 d93d 4ebc c0bc 733b bebd
000003f0: a708 a33b 6dd5 bbbd e9f6 833d deb2 19bd

fc2.bias f4 [64]
-0.0840373 0.055128735 -0.046389893 -0.0985484 -0.072825916 0.023279067 -0.070882425 0.013862872
0.038334906 0.02722274 0.0070432923 0.11067164 0.071421765 0.00090546545 0.042813696 -0.025155308
0.07095417 0.004509227 0.05090542 0.09269434 -0.0073853014 -0.0039884713 -0.06246634 -0.04073749
0.08649976 0.13699387 -0.035404254 -0.036236078 0.049652644 -0.037858922 -0.06719608 -0.08603979
-0.044826653 0.07281602 0.008960604 0.06928243 0.05807533 0.004303075 -0.0034354336 0.047789387
0.018936122 -0.06457526 0.1083616 -0.07938643 0.028827751 -0.09363484 -0.06631674 0.049225017
0.054359 0.114907585 -0.05050747 -0.057193253 0.03221 -0.041902497 0.06150439 0.060996447
0.050901923 0.023075566 0.03825191 0.11597962 -0.04931982 -0.030868642 -0.019525627 0.082036264
00000000: bf1b acbd abce 613d 5403 3ebd bed3 c9bd
00000010: c125 95bd beb3 be3c ce2a 91bd 1921 633c
00000020: 1005 1d3d 3902 df3c 6bcb e63b d0a7 e23d
00000030: 9345 923d c25c 6d3a 6a5d 2f3d 8112 cebc
00000040: 6b50 913d 23c2 933b 3482 503d 88d6 bd3d
00000050: 6600 f2bb b9b1 82bb b4dc 7fbd 5bdc 26bd
00000060: c926 b13d 1f48 0c3e 0d04 11bd 486c 14bd
00000070: 9260 4b3d f511 1bbd 199e 89bd a135 b0bd
00000080: 279c 37bd 9120 953d 7fcf 123c f2e3 8d3d
00000090: 66e0 6d3d cf00 8d3b 0325 61bb cebe 433d
000000a0: ed1f 9b3c 0940 84bd b0ec dd3d 5a95 a2bd
000000b0: 2d28 ec3c 9fc3 bfbd 12d1 87bd 2ca0 493d
000000c0: 8ba7 5e3d ab54 eb3d ece0 4ebd 7943 6abd
000000d0: a2ee 033d f4a1 2bbd 07ec 7b3d 69d7 793d
000000e0: 897e 503d f808 bd3c 09ae 1c3d b986 ed3d
000000f0: 9403 4abd 3ce0 fcbc 35f4 9fbc a102 a83d

fc3.weight f4 [10, 64]
-0.025361361 0.111749716 0.009545485 -0.07563569 0.07052601 -0.2793404 -0.30497074 0.31831795
0.111058004 0.03497369 -0.14780721 -0.23675549 -0.30541018 -0.040265508 0.013513806 0.32764855
-0.030464483 0.17953025 0.07597818 -0.05206288 -0.04462388 0.38389075 -0.057850517 -0.11448218
-0.29863092 -0.3698535 -0.051757537 -0.12916237 -0.09264453 0.31193677 -0.13825856 -0.053565174
0.052292425 0.2509176 0.12047303 -0.36717868 -0.16050665 -0.039094917 0.22810306 0.045296714
-0.22257304 -0.12200741 -0.16766024 -0.1814374 0.03743325 0.05009294 -0.24127167 0.54266
0.12568595 0.23068072 0.3304609 -0.18804573 0.18708846 -0.11555044 0.27073354 0.18385868
-0.22390904 -0.23555417 -0.054956347 -0.06793953 -0.20341955 -0.20406628 0.015453491 -0.020590229
-0.055678662 0.02323243 0.117769815 0.12927045 0.04003222 -0.33225074 0.34514534 -0.26241523
-0.25395122 -0.33740175 0.32993898 0.45690247 0.35731286 0.43365145 -0.10554545 0.17877285
-0.045841172 -0.35976204 -0.16099179 -0.10811065 0.115867056 0.2256204 -0.053056482 0.021570008
0.42578396 -0.29958305 -0.09386154 -0.07785099 0.13078934 -0.04776833 -0.08393002 -0.011772194
0.22472785 -0.08988919 -0.08637455 0.23959623 0.093246214 -0.29343873 0.23405018 -0.06570825
-0.07553934 -0.26818818 0.20289996 0.10109645 -0.25060147 -0.14621496 0.39457127 -0.14437352
-0.2424523 0.16752078 0.03652697 -0.15403794 -0.1704465 -0.074031234 -0.41797087 0.060352422
-0.11693898 -0.035227142 0.08379231 -0.23393348 0.23991565 0.09128606 0.024938093 -0.13314229
0.04510252 0.08740643 0.27297458 -0.0856307 0.15079097 -0.27265212 0.54518604 -0.13321103
0.041444242 0.32228714 0.13938423 -0.2537602 -0.2515477 0.007728508 -0.05825305 -0.048103813
0.07750213 -0.18190922 -0.36045897 -0.17602098 -0.08787062 -0.29548955 0.3784781 -0.045588396
0.08389429 -0.35825878 -0.076982625 -0.0020132693 -0.2053908 -0.014365261 0.15152226 0.031264044
-0.069903806 0.29566798 -0.14359415 -0.36071578 0.39021614 -0.027780632 -0.24488623 -0.28414488
0.13126038 -0.28969735 0.29505324 0.1695296 0.011391763 -0.17041208 0.122314036 0.44182938
0.003858791 -0.07678582 -0.11974398 -0.14538418 0.025383813 -0.020963853 0.32356387 -0.23281886
0.41055137 0.11028284 0.16981733 0.01971402 0.29324993 0.31480646 -0.07098585 0.11856767
0.03296665 -0.19335406 -0.101246916 -0.003420474 0.28426528 0.39677113 0.14476234 -0.32812038
0.30107027 -0.002675455 -0.3565948 -0.051177707 0.4417744 0.15300658 -0.024884613 -0.065597005
-0.07701331 0.28120503 -0.17610182 0.3079567 -0.01825496 0.07456261 -0.18688895 0.12328802
0.23348813 0.40630865 -0.05349384 0.15838745 -0.14009582 -0.14754978 0.18614326 0.059391513
0.23205137 0.18397304 0.1784377 -0.26244897 -0.061431248 -0.16538851 0.0028271975 -0.14322118
-0.21828252 -0.27565366 -0.37302113 0.016678674 -0.12935576 0.003832888 -0.057060283 -0.21262999
0.25014913 -0.3140777 0.020822112 0.29614726 0.082170226 -0.0018754161 0.3928091 -0.14648502
-0.022490479 -0.19892663 -0.05433621 -0.29400912 0.3561646 -0.25930622 0.05084946 -0.11701996
00000000: a1c2 cfbc 09dd e43d aa64 1c3c e2e6 9abd
00000010: f16f 903d b405 8fbe 2025 9cbe 92fa a23e
00000020: 6172 e33d 9240 0f3d c65a 17be 0870 72be
00000030: b95e 9cbe 72ed 24bd 0369 5d3c 8dc1 a73e
00000040: a790 f9bc c7d6 373e 739a 9b3d e33f 55bd
00000050: 88c7 36bd 548d c43e aaf4 6cbd a275 eabd
00000060: 27e6 98be 705d bdbe b6ff 53bd 2443 04be
00000070: 6abc bdbd 2db6 9f3e a793 0dbe 2867 5bbd
00000080: 9530 563d 4678 803e 90ba f63d d8fe bbbe
00000090: db5b 24be fe21 20bd d993 693e 0c89 393d
000000a0: 30ea 63be 05df f9bd 20af 2bbe baca 39be
000000b0: 9c53 193d 412e 4d3d ec0f 77be c4eb 0a3f
000000c0: d1b3 003e 9137 6c3e 2c32 a93e 0f8f 40be
000000d0: 1e94 3f3e b6a5 ecbd 969d 8a3e 7345 3c3e
000000e0: 6948 65be 1d35 71be e819 61bd e123 8bbd
000000f0: 374d 50be c0f6 50be a430 7d3c d7ac a8bc
00000100: 4f0f 64bd f051 be3c 4d31 f13d 795f 043e
00000110: d3f8 233d c51c aabe e4b6 b03e 4a5b 86be
00000120: e505 82be ecbf acbe c3ed a83e 1fef e93e
00000130: b6f1 b63e 9007 de3e 3628 d8bd 3b10 373e
00000140: f4c3 3bbd bb32 b8be 08db 24be 1e69 ddbd
00000150: b54b ed3d 0909 673e c151 59bd 96b3 b03c
00000160: 5b00 da3e f362 99be 7b3a c0bd 5770 9fbd
00000170: a4ed 053e b9a8 43bd 81e3 abbd 29e0 40bc
00000180: 0f1f 663e d317 b8bd 24e5 b0bd b758 753e
00000190: dff7 be3d 9a3d 96be daaa 6f3e 0c92 86bd
000001a0: 5fb4 9abd f64f 89be 02c5 4f3e a80b cf3d
000001b0: d64e 80be 60b9 15be 3f05 ca3e a7d6 13be
000001c0: 6a45 78be 918a 2b3e 4e9d 153d 1fbc 1dbe
000001d0: 8789 2ebe b09d 97bd 4700 d6be 1a34 773d
000001e0: b47d efbd 564a 10bd 4d9b ab3d 428c 6fbe
000001f0: 73ac 753e 30f4 ba3d f94a cc3c 7456 08be
00000200: 6cbd 383d 2402 b33d 53c3 8b3e 265f afbd
00000210: f368 1a3e 0f99 8bbe 5091 0b3f 7968 08be
00000220: 70c1 293d d202 a53e bdba 0e3e dbec 81be
00000230: dcca 80be 6d3f fd3b c09a 6ebd 8108 45bd
00000240: 70b9 9e3d 6946 3abe 148e b8be d83e 34be
00000250: 83f5 b3bd 684a 97be e2c7 c13e e6ba 3abd
00000260: c5d0 ab3d b26d b7be 11a9 9dbd 0ef1 03bb
00000270: f751 52be 465c 6bbc a728 1b3e ba0e 003d
00000280: ba29 8fbd cb61 973e 580a 13be bdaf b8be
00000290: 69ca c73e 3594 e3bc 75c3 7abe 707b 91be
000002a0: 1f69 063e 3653 94be 3811 973e 2b99 2d3e
000002b0: 84a4 3a3c 8180 2ebe c87f fa3d 7637 e23e
000002c0: c5e3 7c3b e241 9dbd 553c f5bd 97df 14be
000002d0: b7f1 cf3c 63bc abbc 2aaa a53e 1168 6ebe
000002e0: ca33 d23e f8db e13d 98e4 2d3e 4c7f a13c
000002f0: db24 963e 502e a13e 0861 91bd 9bd3 f23d
00000300: 0a08 073d 9bfe 45be 8b5a cfbd 082a 60bb
00000310: 388b 913e 9625 cb3e 943c 143e 65ff a7be
00000320: e225 9a3e b056 2fbb 9893 b6be b79f 51bd
00000330: 4130 e23e c2ad 1c3e d1da cbbc b957 86bd
00000340: 27b9 9dbd 1bfa 8f3e 0954 34be 80ac 9d3e
00000350: 6d8b 95bc 48b4 983d d15f 3fbe 6e7e fc3d
00000360: 8317 6f3e b007 d03e 5b1c 5bbd 5230 223e
00000370: 4775 0fbe 4a17 17be 579c 3e3e 8444 733d
00000380: e09e 6d3e 6e63 3c3e 5fb8 363e b65f 86be
00000390: 559f 7bbd 9b5b 29be 8148 393b 93a8 12be
000003a0: 7485 5fbe 7a22 8dbe a0fc bebe b7a1 883c
000003b0: d675 04be 3131 7b3b 0bb8 69bd adbb 59be
000003c0: 8c13 803e cbce a0be 2293 aa3c 9da0 973e
000003d0: dd48 a83d 86d0 f5ba 461e c93e 2b00 16be
000003e0: f43d b8bc 6cb3 4bbe a58f 5ebd 5d88 96be
000003f0: 355b b63e c9c3 84be 8647 503d 29a8 efbd

fc3.bias f4 [10]
-0.024785649 0.097981215 0.0042679934 -0.0014046518 0.10938557 0.15299395 -0.023659654 -0.072672546
0.17184998 -0.02151364
00000000: 460b cbbc 60aa c83d 86da 8b3b 4b1c b8ba
00000010: 8b05 e03d 72aa 1c3e e4d1 c1bc 58d5 94bd
00000020: 71f9 2f3e 603d b0bc
